{
    "format": "layers-model",
    "generatedBy": "keras v2.4.0",
    "convertedBy": "TensorFlow.js Converter v3.0.0",
    "modelTopology": {
        "keras_version": "2.4.0",
        "backend": "tensorflow",
        "model_config": { "class_name": "Sequential", "config": { "name": "sequential_4", "layers": [{ "class_name": "InputLayer", "config": { "batch_input_shape": [null, 32, 32, 3], "dtype": "float32", "sparse": false, "ragged": false, "name": "conv2d_16_input" } }, { "class_name": "Conv2D", "config": { "name": "conv2d_16", "trainable": true, "batch_input_shape": [null, 32, 32, 3], "dtype": "float32", "filters": 32, "kernel_size": [3, 3], "strides": [1, 1], "padding": "same", "data_format": "channels_last", "dilation_rate": [1, 1], "groups": 1, "activation": "relu", "use_bias": true, "kernel_initializer": { "class_name": "GlorotUniform", "config": { "seed": null } }, "bias_initializer": { "class_name": "Zeros", "config": {} }, "kernel_regularizer": null, "bias_regularizer": null, "activity_regularizer": null, "kernel_constraint": null, "bias_constraint": null } }, { "class_name": "BatchNormalization", "config": { "name": "batch_normalization_19", "trainable": true, "dtype": "float32", "axis": [3], "momentum": 0.99, "epsilon": 0.001, "center": true, "scale": true, "beta_initializer": { "class_name": "Zeros", "config": {} }, "gamma_initializer": { "class_name": "Ones", "config": {} }, "moving_mean_initializer": { "class_name": "Zeros", "config": {} }, "moving_variance_initializer": { "class_name": "Ones", "config": {} }, "beta_regularizer": null, "gamma_regularizer": null, "beta_constraint": null, "gamma_constraint": null } }, { "class_name": "Conv2D", "config": { "name": "conv2d_17", "trainable": true, "dtype": "float32", "filters": 32, "kernel_size": [3, 3], "strides": [1, 1], "padding": "same", "data_format": "channels_last", "dilation_rate": [1, 1], "groups": 1, "activation": "relu", "use_bias": true, "kernel_initializer": { "class_name": "GlorotUniform", "config": { "seed": null } }, "bias_initializer": { "class_name": "Zeros", "config": {} }, "kernel_regularizer": null, "bias_regularizer": null, "activity_regularizer": null, "kernel_constraint": null, "bias_constraint": null } }, { "class_name": "BatchNormalization", "config": { "name": "batch_normalization_20", "trainable": true, "dtype": "float32", "axis": [3], "momentum": 0.99, "epsilon": 0.001, "center": true, "scale": true, "beta_initializer": { "class_name": "Zeros", "config": {} }, "gamma_initializer": { "class_name": "Ones", "config": {} }, "moving_mean_initializer": { "class_name": "Zeros", "config": {} }, "moving_variance_initializer": { "class_name": "Ones", "config": {} }, "beta_regularizer": null, "gamma_regularizer": null, "beta_constraint": null, "gamma_constraint": null } }, { "class_name": "MaxPooling2D", "config": { "name": "max_pooling2d_8", "trainable": true, "dtype": "float32", "pool_size": [2, 2], "padding": "valid", "strides": [2, 2], "data_format": "channels_last" } }, { "class_name": "Conv2D", "config": { "name": "conv2d_18", "trainable": true, "dtype": "float32", "filters": 64, "kernel_size": [3, 3], "strides": [1, 1], "padding": "same", "data_format": "channels_last", "dilation_rate": [1, 1], "groups": 1, "activation": "relu", "use_bias": true, "kernel_initializer": { "class_name": "GlorotUniform", "config": { "seed": null } }, "bias_initializer": { "class_name": "Zeros", "config": {} }, "kernel_regularizer": null, "bias_regularizer": null, "activity_regularizer": null, "kernel_constraint": null, "bias_constraint": null } }, { "class_name": "BatchNormalization", "config": { "name": "batch_normalization_21", "trainable": true, "dtype": "float32", "axis": [3], "momentum": 0.99, "epsilon": 0.001, "center": true, "scale": true, "beta_initializer": { "class_name": "Zeros", "config": {} }, "gamma_initializer": { "class_name": "Ones", "config": {} }, "moving_mean_initializer": { "class_name": "Zeros", "config": {} }, "moving_variance_initializer": { "class_name": "Ones", "config": {} }, "beta_regularizer": null, "gamma_regularizer": null, "beta_constraint": null, "gamma_constraint": null } }, { "class_name": "Conv2D", "config": { "name": "conv2d_19", "trainable": true, "dtype": "float32", "filters": 64, "kernel_size": [3, 3], "strides": [1, 1], "padding": "same", "data_format": "channels_last", "dilation_rate": [1, 1], "groups": 1, "activation": "relu", "use_bias": true, "kernel_initializer": { "class_name": "GlorotUniform", "config": { "seed": null } }, "bias_initializer": { "class_name": "Zeros", "config": {} }, "kernel_regularizer": null, "bias_regularizer": null, "activity_regularizer": null, "kernel_constraint": null, "bias_constraint": null } }, { "class_name": "BatchNormalization", "config": { "name": "batch_normalization_22", "trainable": true, "dtype": "float32", "axis": [3], "momentum": 0.99, "epsilon": 0.001, "center": true, "scale": true, "beta_initializer": { "class_name": "Zeros", "config": {} }, "gamma_initializer": { "class_name": "Ones", "config": {} }, "moving_mean_initializer": { "class_name": "Zeros", "config": {} }, "moving_variance_initializer": { "class_name": "Ones", "config": {} }, "beta_regularizer": null, "gamma_regularizer": null, "beta_constraint": null, "gamma_constraint": null } }, { "class_name": "MaxPooling2D", "config": { "name": "max_pooling2d_9", "trainable": true, "dtype": "float32", "pool_size": [2, 2], "padding": "valid", "strides": [2, 2], "data_format": "channels_last" } }, { "class_name": "Flatten", "config": { "name": "flatten_4", "trainable": true, "dtype": "float32", "data_format": "channels_last" } }, { "class_name": "Dense", "config": { "name": "dense_7", "trainable": true, "dtype": "float32", "units": 1, "activation": "sigmoid", "use_bias": true, "kernel_initializer": { "class_name": "GlorotUniform", "config": { "seed": null } }, "bias_initializer": { "class_name": "Zeros", "config": {} }, "kernel_regularizer": null, "bias_regularizer": null, "activity_regularizer": null, "kernel_constraint": null, "bias_constraint": null } }] } },
        "training_config": {
            "loss": "binary_crossentropy",
            "metrics": [
                [{ "class_name": "MeanMetricWrapper", "config": { "name": "acc", "dtype": "float32", "fn": "binary_accuracy" } }]
            ],
            "weighted_metrics": null,
            "loss_weights": null,
            "optimizer_config": { "class_name": "Adam", "config": { "name": "Adam", "learning_rate": 0.0010000000474974513, "decay": 0.0, "beta_1": 0.8999999761581421, "beta_2": 0.9990000128746033, "epsilon": 1e-07, "amsgrad": false } }
        }
    },
    "weightsManifest": [{ "paths": ["group1-shard1of1.bin"], "weights": [{ "name": "batch_normalization_19/gamma", "shape": [32], "dtype": "float32" }, { "name": "batch_normalization_19/beta", "shape": [32], "dtype": "float32" }, { "name": "batch_normalization_19/moving_mean", "shape": [32], "dtype": "float32" }, { "name": "batch_normalization_19/moving_variance", "shape": [32], "dtype": "float32" }, { "name": "batch_normalization_20/gamma", "shape": [32], "dtype": "float32" }, { "name": "batch_normalization_20/beta", "shape": [32], "dtype": "float32" }, { "name": "batch_normalization_20/moving_mean", "shape": [32], "dtype": "float32" }, { "name": "batch_normalization_20/moving_variance", "shape": [32], "dtype": "float32" }, { "name": "batch_normalization_21/gamma", "shape": [64], "dtype": "float32" }, { "name": "batch_normalization_21/beta", "shape": [64], "dtype": "float32" }, { "name": "batch_normalization_21/moving_mean", "shape": [64], "dtype": "float32" }, { "name": "batch_normalization_21/moving_variance", "shape": [64], "dtype": "float32" }, { "name": "batch_normalization_22/gamma", "shape": [64], "dtype": "float32" }, { "name": "batch_normalization_22/beta", "shape": [64], "dtype": "float32" }, { "name": "batch_normalization_22/moving_mean", "shape": [64], "dtype": "float32" }, { "name": "batch_normalization_22/moving_variance", "shape": [64], "dtype": "float32" }, { "name": "conv2d_16/kernel", "shape": [3, 3, 3, 32], "dtype": "float32" }, { "name": "conv2d_16/bias", "shape": [32], "dtype": "float32" }, { "name": "conv2d_17/kernel", "shape": [3, 3, 32, 32], "dtype": "float32" }, { "name": "conv2d_17/bias", "shape": [32], "dtype": "float32" }, { "name": "conv2d_18/kernel", "shape": [3, 3, 32, 64], "dtype": "float32" }, { "name": "conv2d_18/bias", "shape": [64], "dtype": "float32" }, { "name": "conv2d_19/kernel", "shape": [3, 3, 64, 64], "dtype": "float32" }, { "name": "conv2d_19/bias", "shape": [64], "dtype": "float32" }, { "name": "dense_7/kernel", "shape": [4096, 1], "dtype": "float32" }, { "name": "dense_7/bias", "shape": [1], "dtype": "float32" }] }]
}